Otto Group/OttoGroup.pth (torch_old, 841792 bytes, 10 tensors)

fc1.weight f4 [128, 93]
000000 d1 78 65 3e 3b 44 df bd 88 28 a2 3d 67 85 ea bb
       0.22409369 -0.10901686 0.07917887 -0.007157016
000010 1e 9b 13 be 55 95 52 3b df bc 0f 3e 50 69 56 3d
       -0.14414641 0.0032132466 0.14036892 0.052346528
000020 0b a5 2a 3e 66 18 24 3e da 50 12 3e 3b c7 aa bd
       0.16664521 0.16024932 0.14288655 -0.083387814
000030 80 73 15 3e 3a a0 aa be 30 47 29 3e 4f 57 c1 3d
       0.14594841 -0.33325368 0.16531062 0.09440481
000040 62 9f ac be e6 a1 4d 3c 14 ee 5b 3e d7 af fc bd
       -0.3371535 0.012550807 0.21477538 -0.12338226
000050 46 7f e5 bd ff 4e a8 3d fe cc 08 be d2 ca 4c bf
       -0.11205916 0.08218192 -0.13359448 -0.7999698
000060 d9 f1 b1 bd d5 48 8e 3e 12 33 b6 3e e9 2d b9 3c
       -0.08688707 0.2778994 0.3558584 0.0226049
000070 28 55 31 3e 21 4a 78 3c 24 d0 13 bd cc e3 10 be
       0.17317641 0.015154392 -0.03608717 -0.14149398
000080 71 f2 6e be a3 e6 bd be c9 bd 6f 3d a2 75 6d 3e
       -0.23334672 -0.37090024 0.058530603 0.23189405
000090 7a 66 11 3e b5 57 80 3c 52 a0 1f be 42 29 54 3e
       0.14199248 0.015666822 -0.15588501 0.20718864
0000a0 e0 9f 07 bb 52 06 06 be 40 c2 03 3e 64 30 60 be
       -0.0020694658 -0.13088349 0.12867069 -0.2189346
0000b0 f8 e2 ed bd 04 71 81 3d e9 ec 98 3c 94 06 14 3d
       -0.116155565 0.06320384 0.018667655 0.036139086
0000c0 4a 6e 7e 3c c2 b1 c3 bd 14 a5 c9 bd 27 96 30 3a
       0.015529225 -0.09555389 -0.09845939 0.00067362416
0000d0 2a 13 33 be 00 bf 80 3d 83 ed fb bd ed a0 04 3e
       -0.1748778 0.0628643 -0.12301161 0.12952013
0000e0 17 e6 2a be f7 a7 2e bd a9 ab 48 be 0a ac 62 3d
       -0.16689335 -0.042640653 -0.19596733 0.05533985
0000f0 02 9b ae 3d ba 31 69 be 9f 7e 63 3e bc ce 00 be
       0.08525659 -0.22772875 0.22216271 -0.12578863
000100 64 b4 66 bd aa 18 6e 3d e9 fb 3d be 4f 64 63 be
       -0.056324378 0.05812899 -0.18553127 -0.22206233
000110 c2 15 89 3d 6f cb 6f 3d 71 20 ac 3b f6 b8 aa 3d
       0.06693603 0.05854362 0.0052528908 0.0833606
000120 e8 13 29 be 5f 42 7f bd c9 61 73 3c d9 ea 9c bb
       -0.165115 -0.062319156 0.014854857 -0.004788738
000130 2f aa 07 be 7d dc 8c bd c7 e3 d1 bd 9e 18 a9 3c
       -0.13248514 -0.06877992 -0.10248523 0.020641621
000140 23 2e 8f bd b9 b5 ae 3d 2f 0d 12 3e 5f 1e a9 bd
       -0.06991222 0.085307546 0.14262842 -0.08257746
000150 86 c9 48 3e 0b 7f c9 bd 56 6b cd bd de 5a 8b 3d
       0.19608125 -0.09838685 -0.10030238 0.06804441
000160 92 d8 33 bc a1 5e a2 bc 75 c0 8c 3c 97 18 6e be
       -0.010976927 -0.019820513 0.017181614 -0.23251568
000170 08 bd 26 3e 43 b6 68 be 83 3f ad 3c 72 f9 fc 3d
       0.16283047 -0.22725777 0.021148449 0.123522654
000180 c0 ca c7 3c 6b fc 09 bd 5a f3 88 3d 80 3a 4e bc
       0.02438867 -0.03368799 0.066870406 -0.01258719
000190 12 6d e9 3d a0 0e 64 be 18 11 1e 3d 05 22 b3 be
       0.11397757 -0.22271204 0.03859052 -0.34986892
0001a0 c3 18 df bc 8f 17 43 3e 31 0a fe bc d0 79 8a 3d
       -0.027233487 0.19051956 -0.031010719 0.06761515
0001b0 41 e9 88 3d 20 ac 89 bd 4c 65 f0 3d 46 25 47 3d
       0.06685115 -0.06722283 0.11738071 0.04861953
0001c0 c6 87 4a 3e 5d 93 f0 bd 98 b5 a1 3d 6d 13 a0 bc
       0.19778356 -0.11746857 0.078959644 -0.019540513
0001d0 36 f9 40 3d 7a 16 0b be ac f7 9e 3e 8b e0 5b be
       0.047112666 -0.13582793 0.31048334 -0.21472375
0001e0 46 ff e6 bc 5b ec ba bd c2 14 7a be fc 88 07 be
       -0.028197896 -0.091271125 -0.24421981 -0.13235849
0001f0 3e d2 26 3c 44 a3 80 bb bb cf a7 3e cd 9b 8a bd
       0.010181962 -0.003925713 0.32775673 -0.06767998
000200 46 46 2c be 91 c9 2a be c4 29 fe bd a1 ee 82 be
       -0.16823682 -0.16678454 -0.1241031 -0.25572684
000210 43 04 d2 3d e3 f0 eb 3d fa 75 26 bd db 7b 58 3d
       0.10254719 0.11520555 -0.040639855 0.052852493
000220 56 d0 cd 3d eb a5 a9 bb 6d 03 1e be 46 39 6a be
       0.100495026 -0.0051772497 -0.15430994 -0.2287341
000230 86 78 9e bc fd 06 2c 3b 9c 44 fa bd 5d c5 7b 3c
       -0.01934458 0.0026249283 -0.122201174 0.015366879
000240 6f eb 85 be 56 b1 90 bd a5 8b 0b be f4 c7 07 be
       -0.26156184 -0.07065074 -0.13627489 -0.1325987
000250 55 c7 e6 3d bd 55 e7 3d 85 cb ef 3c 6c 0d 20 be
       0.11268488 0.1129565 0.02927185 -0.1563012
000260 f8 9f 8a 3e d7 6b 9f bd 8d be a5 3d 6b 78 2a be
       0.2707517 -0.07784241 0.08092985 -0.16647498
000270 12 bf 16 be 1b d7 2d 3e a3 ff 75 bc 7f 9e 53 be
       -0.14721325 0.16976587 -0.015014562 -0.2066593
000280 22 b8 98 3d ac f2 6d 3d 22 cc 4d 3d e6 03 04 3e
       0.074569955 0.058092758 0.050243504 0.12892112
000290 bc 3d df bd cc e0 c4 3c df b1 27 bd ee ca b9 3c
       -0.10900447 0.024032973 -0.040941115 0.022679772
0002a0 c4 c0 29 be ea f5 5a 3d 0b 9d 34 bd 3b 7a 0e be
       -0.1657744 0.05345718 -0.04409508 -0.13913815
0002b0 34 9d 95 be 42 96 55 3d 81 9f e3 bd e2 a0 21 be
       -0.292215 0.05214525 -0.11114407 -0.15784028
0002c0 35 15 b4 bc e9 f0 cc 3d 98 16 13 bb 33 8e 78 3c
       -0.021982769 0.100068875 -0.0022443887 0.015170622
0002d0 7d a7 88 3d db 88 42 bc 56 b0 5a be a7 06 a9 bd
       0.06672571 -0.011873449 -0.2135633 -0.08253222
0002e0 60 0a 8c 3e 2e e3 91 bd e2 a6 37 be 23 f6 a3 bc
       0.27351665 -0.07123409 -0.17934754 -0.020014828
0002f0 9c 03 66 3d de 1b a4 bd 3f 9a 90 be f2 e6 17 bd
       0.056155786 -0.08013128 -0.2824268 -0.03708548
000300 39 2b ca bd da cf f2 be d9 9c bf bc 7a 99 b6 ba
       -0.09871525 -0.47424203 -0.02339022 -0.0013931238
000310 ba af f1 3e 60 89 c6 bd 96 07 1d bc 5e e9 f6 3d
       0.4720438 -0.09694171 -0.009584328 0.1205623
000320 39 4f 8f bc 14 9a 18 3e 93 7e 4e bd 22 2e 0a be
       -0.017493831 0.14902526 -0.05041368 -0.13494161
000330 29 a8 d5 3d b4 cd 8b 39 73 ee 57 3e f5 c2 7f bd
       0.10432465 0.00026665407 0.21087055 -0.062441785
000340 7f 09 13 3e be cb 9c 3d 95 5e 15 be be cc 01 bf
       0.14359091 0.07656048 -0.14586861 -0.50703037
000350 2d 87 4c 3d 3c 54 0f bd 3b e6 fd 3d 79 71 52 be
       0.0499336 -0.03499244 0.123974286 -0.20551099
000360 54 79 2a 3e b9 be 5c be 58 fb 8c 3e 8e c8 99 bc
       0.16647846 -0.2155713 0.2753551 -0.01877239
000370 f8 f3 bd bd 79 37 6b bd bd 37 01 3e 5e 30 28 3e
       -0.09275049 -0.05742595 0.12618919 0.164247
000380 ca 94 77 3e 8f bf 8f bc bf 60 b8 bd da 33 84 bd
       0.24177852 -0.017547397 -0.09002828 -0.064552024
000390 e5 cf a3 3e cf ec b2 3c f1 ba 08 3e 10 b8 b7 ba
       0.31994548 0.021841435 0.13352562 -0.0014016647
0003a0 e8 60 d3 3c e0 84 4a 3d 93 97 fd 3b 72 16 9d 3e
       0.025803044 0.049443126 0.0077390163 0.30681187
0003b0 3d 72 61 3d b0 46 85 3e 32 69 ef bd b7 2c 6c 3d
       0.055040587 0.26030493 -0.11689986 0.05765983
0003c0 bf fa ce 3c dd 58 14 bd 9b 3b 95 bd cb 83 15 3e
       0.02526605 -0.03621756 -0.072867595 0.14601056
0003d0 54 a3 12 3d 24 91 2a bf 60 44 dd 3d 87 74 00 be
       0.035800293 -0.66627717 0.10804057 -0.12544452
0003e0 df 7f c1 3d 4f e2 f0 3d 6f 21 5e be f1 1f 27 3d
       0.094482176 0.11761915 -0.21692441 0.040801946
0003f0 d4 0c 90 bd 9d 68 50 3d 42 75 df 3d df b5 e6 3d
       -0.07033697 0.050881017 0.10911037 0.11265158

fc1.bias f4 [128]
000000 4a 10 a2 3e 5c 8c 79 3e de 52 be bd 43 47 c3 bc
       0.31653053 0.24369949 -0.092931494 -0.023837691
000010 55 d7 77 3c bd 51 a9 bd 73 e0 c4 3d 0f 58 a7 3d
       0.015127023 -0.082675435 0.09613123 0.08171093
000020 56 93 bb 3e e3 f5 40 be cd ae 9f ba 98 10 3e 3e
       0.36635846 -0.18843798 -0.0012182832 0.18561018
000030 d8 bb 5a 3e 1e 5d 9a bd 6f b2 6f 3e cf da 58 3e
       0.21360719 -0.07537292 0.23407911 0.21177219
000040 3d 51 ae 3d 8f 0b fa 3d bb 6e 35 3e 03 f3 ac 3e
       0.08511589 0.12209236 0.17718022 0.33779153
000050 3f 95 d7 be 33 d2 00 3d 30 ae 21 bd 8e 08 a4 3d
       -0.42106053 0.03145046 -0.03947276 0.08009444
000060 60 e5 8c bd 98 96 b7 3e b3 99 2e 39 c9 76 b1 bd
       -0.06879687 0.3585708 0.0001665119 -0.086652346
000070 82 d4 18 3e 96 b2 19 3f 5f e1 87 3e 5e 70 a7 3d
       0.14924815 0.60038126 0.26539132 0.08175729
000080 6f ec 50 bd 67 29 be 3d 97 1c b3 bd a5 43 64 be
       -0.05100673 0.092852406 -0.087456875 -0.2229143
000090 e0 7d c4 be 0f 70 c7 3e 66 e4 90 be cb 01 1e be
       -0.38377285 0.3895268 -0.28299254 -0.15430371
0000a0 04 ef 41 be 49 23 95 3e dc f0 4a bd 07 c6 34 3e
       -0.18938833 0.29128483 -0.049546108 0.17653666
0000b0 50 8d f3 3e 8f 94 b9 be 42 be 4c be 07 ac 0c 3e
       0.4756875 -0.36246154 -0.19994453 0.13737498
0000c0 aa d6 8c 3e 98 73 87 be ee ab 09 3e f5 e6 e8 bd
       0.27507526 -0.2645538 0.13444492 -0.113721766
0000d0 52 86 5b 3e 55 4a ba 3e 4d 76 38 3e da db 15 be
       0.21437958 0.36384836 0.18013878 -0.14634648
0000e0 23 93 d0 bc 3c 72 ef bd 64 02 33 be 7e 03 21 3e
       -0.025460785 -0.1169171 -0.1748138 0.15723988
0000f0 5c d1 0d be 2a 92 23 3d b7 0b 72 3e d7 cc b5 3d
       -0.13849396 0.039934315 0.23637281 0.08876961
000100 74 fd 38 3c 8f 9e 9e 3d 04 ca b5 bd d9 35 51 be
       0.011290897 0.077450864 -0.08876422 -0.20430698
000110 67 41 21 be 79 a3 2b bc 61 55 c4 bd 4e 4c 7e be
       -0.15747605 -0.010475987 -0.09586597 -0.24833795
000120 8f 1b cb 3c 93 18 0f bf 03 9a 72 3d 44 a3 8a 3e
       0.024793414 -0.5589687 0.05922891 0.27077687
000130 58 9a 7a 3e 42 18 8a 3e e8 a3 8e be 79 bc c1 3d
       0.2447294 0.26971632 -0.27859426 0.094597764
000140 97 0c 39 3e 9e 22 17 3e 5b 21 df bd b6 b2 a7 bb
       0.18071209 0.14759299 -0.10895034 -0.0051177396
000150 f0 7e 97 3d d0 7c ce bd 40 80 13 be 31 ba e9 3e
       0.07397258 -0.100824 -0.14404392 0.45649865
000160 71 49 2a 3c c2 47 1c 3d fa 8a be be 74 ec 93 be
       0.010393486 0.03815437 -0.37215406 -0.28891337
000170 22 85 ad be e4 9e 94 3c 48 29 9d 3e 9c c9 62 bd
       -0.33890635 0.018142171 0.30695558 -0.05536805
000180 75 e0 0a 3e eb ed 48 be 61 de 80 be ee b2 8b be
       0.13562186 -0.19622009 -0.25169662 -0.2728495
000190 22 19 27 3d 74 ea b0 3c 0f 8f 24 bd 2e 68 c0 3e
       0.040795453 0.021596171 -0.040175494 0.37579483
0001a0 ce 7f 85 3e 26 b8 bf 3e b4 05 80 be 29 74 c8 39
       0.2607407 0.37445182 -0.2500435 0.0003823352
0001b0 4a 7a b0 3d 93 87 4f 3c 43 33 80 3e 8e a3 1c 3b
       0.08617075 0.012666601 0.2503911 0.0023901197
0001c0 bc cc 2a be 35 06 29 3e 38 42 23 3d b6 51 3a be
       -0.16679662 0.16506274 0.039858073 -0.18195233
0001d0 e5 4c 28 3c 1c a0 31 be ab 8a ad be 26 9b 9f bc
       0.010272239 -0.17346233 -0.33894858 -0.01948316
0001e0 d9 ab e3 3d e5 8a a3 3d fa e1 c2 be f2 4f 81 3e
       0.11116762 0.079854764 -0.3806303 0.25256306
0001f0 b0 49 39 bd d7 2d cd 3d bf b6 1d 3d 2d b0 fa 3d
       -0.04523629 0.10018509 0.03850436 0.12240634

fc2.weight f4 [256, 128]
000000 f7 8e 91 3b 1d 84 80 3c 77 8a 04 3d c7 8d ae 3c
       0.0044420916 0.015687997 0.032358613 0.02130784
000010 b3 a9 11 3d 1c b9 99 3b 17 e1 00 bc ca 52 8f bd
       0.03556223 0.004691256 -0.007866166 -0.06998213
000020 cc d5 9d 3b 1c 56 12 bd d7 ad 44 bc 92 fb 2c bd
       0.0048167463 -0.03572665 -0.012004337 -0.042232104
000030 c8 ff 17 bd 2e 9b 26 3d 95 d9 79 3d 23 c0 c9 bd
       -0.037109166 0.040675335 0.060998518 -0.098511
000040 d8 4e ad 3d 13 fe 1a 3d f9 75 37 3d ab ef f4 bd
       0.08462304 0.03783996 0.044790242 -0.119597755
000050 2f 00 14 3d 7e e6 9f 3d f7 b2 d9 bd 5c 3b e9 3c
       0.036132988 0.07807635 -0.10629838 0.028470688
000060 03 25 c2 bd d0 95 db ba 7f eb 96 ba 51 5b c4 bc
       -0.09479716 -0.0016753022 -0.0011514275 -0.023969324
000070 69 4c 95 bd 0d e9 bd bb ac c8 08 3e 80 8b c8 bd
       -0.07289965 -0.005795604 0.133578 -0.097922325
000080 9f 94 92 bd b7 ed b6 bd d9 8a 90 3c 9e 1b 7f bc
       -0.071572535 -0.08932059 0.017644333 -0.015570549
000090 18 9e 02 be 34 58 a3 bb 69 42 b2 3a 09 8c 99 bd
       -0.1275562 -0.00498488 0.0013600114 -0.07497413
0000a0 5f 5e 0c bd cf e8 7d bd 2c d1 f4 bd 95 63 70 bd
       -0.034269687 -0.0619896 -0.11953959 -0.05868872
0000b0 ea 43 a7 bc f7 7c b3 bd 42 84 00 bc d2 59 a2 bd
       -0.020418126 -0.087640695 -0.007844033 -0.07927288
0000c0 2e b7 0c 3d 44 b7 30 bd 3b e5 af 3d f0 8f 19 bd
       0.03435438 -0.043143526 0.08588644 -0.037490785
0000d0 7b 5d e9 3d 28 7b ca 3d 8e fd c7 3c 82 37 af bd
       0.11394783 0.098867714 0.024412896 -0.08555509
0000e0 d5 6e 15 bd ae 06 d7 bd c4 af 8b bc 32 37 fc 3c
       -0.03648265 -0.10499321 -0.017051585 0.030788038
0000f0 fc ab cc bb e7 93 6e 3d 05 4a dc 3d bc 3c 0f bd
       -0.006246088 0.05824652 0.107563056 -0.03497003
000100 c2 9c 80 bd 29 21 65 3d 77 a8 7d bd f3 30 00 3d
       -0.06279899 0.055939827 -0.06192824 0.03129668
000110 34 13 8d bd a8 de 39 bc c0 de d0 bb 39 e8 e1 3a
       -0.06888428 -0.011344589 -0.00637421 0.0017235345
000120 c6 76 ba 3d 5a 13 8a bc df f0 bc 3c 59 de 10 be
       0.091046855 -0.01685493 0.023064075 -0.14147319
000130 27 92 21 bd b0 f4 e4 3c c4 59 b6 bc cc 92 dd bd
       -0.039446022 0.027948707 -0.0222596 -0.10819015
000140 c2 ed 1d bd 6e 55 39 3d 2b 4e 55 bd bd b5 c7 bd
       -0.03855682 0.045247488 -0.0520765 -0.09751461
000150 eb 98 39 3d f5 3d db 3d 43 df 3a bd d1 ee 38 bd
       0.04531185 0.10705177 -0.045623075 -0.045149628
000160 45 f8 98 3d 85 11 f5 bc c4 39 cd bc 0e e0 77 bd
       0.07469229 -0.02991558 -0.025051959 -0.06051641
000170 23 de f2 bc 2c 2f 1e 3c 4a d5 4a 3d 3b 95 88 bd
       -0.029646939 0.009654801 0.049519815 -0.066690885
000180 ca 47 f0 bb 6b f9 27 3d e2 9d 8d bd 72 8b 5b bd
       -0.0073327767 0.041009348 -0.069148794 -0.053599782
000190 c0 46 fe bc 85 f3 00 3e 49 7e b0 3d 94 db 7f 3c
       -0.031039596 0.12592895 0.08617837 0.015616316
0001a0 e4 94 88 3d 5b 80 8e 3d 59 1c 73 bc c4 10 56 3d
       0.06669024 0.069580756 -0.014838302 0.052262083
0001b0 6c 0f fd 3d 72 e6 fd bc fe b4 6d 3d a6 6a b5 3c
       0.12356457 -0.030993674 0.058033936 0.02214558
0001c0 c5 5e 11 bd ac 01 0e 3d f4 2e 20 bc da c4 79 3d
       -0.03549077 0.034669563 -0.0097768195 0.060978748
0001d0 94 d5 91 3d ee 99 6e bd 5b a6 0c be 21 62 6b bd
       0.07120815 -0.058252268 -0.13735335 -0.05746663
0001e0 df c4 17 3b d4 de b3 3d e4 71 0f be f0 f1 3b 3d
       0.0023158116 0.087827355 -0.1400829 0.045885026
0001f0 68 36 5d bd 31 c4 0c 3c f0 b3 02 3e e4 6b c1 bb
       -0.054006964 0.008591698 0.12763953 -0.005902754
000200 83 93 2c bc c1 dd 8c 3d ee ab 9d bc 80 1d 0b be
       -0.010533216 0.06878234 -0.019247022 -0.13585472
000210 c0 71 46 3c 0a 99 bd bc 61 55 2f 3d 71 d1 0a be
       0.012112081 -0.023144264 0.042806033 -0.13556458
000220 f8 e2 e3 3d e6 71 1a 3d e0 51 d4 3b de ba c8 3c
       0.11127275 0.03770628 0.006479487 0.024503168
000230 82 54 0d 3e 43 a8 d8 3c d7 ad 6d bc e9 91 0c bc
       0.13801768 0.026447421 -0.014506779 -0.00857971
000240 25 18 d9 ba df b7 b4 bd b6 8a 5e 3d 0d f0 89 3d
       -0.0016562982 -0.08824133 0.054331504 0.06735239
000250 b1 55 55 be 28 1c 6e bd c0 4f dc bd 78 5a 3b bd
       -0.2083347 -0.05813232 -0.107573986 -0.045740575
000260 a9 22 09 be 15 b1 9f 3d 84 60 90 bc 8b 3f 6b 3d
       -0.13392128 0.077974476 -0.017624147 0.057433646
000270 74 a2 c8 3c e5 f4 f2 ba 06 9b c3 bc f2 51 2a 3d
       0.024491526 -0.0018536119 -0.023877632 0.041582055
000280 47 29 5f 3d ff 11 10 be 71 4d 01 bd 27 3c 0a 3d
       0.054482725 -0.14069365 -0.031567995 0.033748772
000290 0c b0 1f 3a ee 5c 9b 3d 2a 19 0a bd 2c bf 26 3d
       0.00060916017 0.07586084 -0.033715405 0.04070966
0002a0 c4 ad 06 bd b9 d2 e5 3d 9c 51 00 bc 4b cd 71 3d
       -0.03288056 0.11221833 -0.007831957 0.059033673
0002b0 6d 3f cf 3d 91 a7 d2 3c 81 9c 64 3c f9 ab c5 bc
       0.101195194 0.025714668 0.013953329 -0.024129855
0002c0 f2 f4 c7 3c c0 3f ae bd 55 ab c1 3d aa 38 bf 3d
       0.024408791 -0.08508253 0.09456507 0.0933698
0002d0 58 4e a2 bd d5 0c d2 3d f3 47 9c 3d 56 0b e5 3c
       -0.07925099 0.10256354 0.07630911 0.027959507
0002e0 c5 47 fa 3c 5f cb 7b bc 70 e0 6b 3d 7a 99 8b 3d
       0.0305518 -0.015368312 0.057587087 0.06816383
0002f0 1a 77 96 3d b6 42 4e bc 69 8a 7a bd 66 2b 14 3d
       0.073469356 -0.012589147 -0.061167154 0.0361742
000300 89 61 1c bc 35 da bd bd 82 f5 d2 bc 4f 2b 27 bd
       -0.009544739 -0.09270135 -0.025751833 -0.040812787
000310 fa ec f8 bd b1 c4 42 3d 25 59 76 bd 45 68 22 bd
       -0.12154575 0.04755086 -0.06014361 -0.03965022
000320 8f 9d 06 bd 25 d2 d1 bd d1 60 fc 3a d9 7c a5 bd
       -0.032865103 -0.1024516 0.0019254928 -0.080804534
000330 a9 a4 62 bc ae be 97 3d 1f 9f 77 3c 97 e0 5d 3d
       -0.013833203 0.07409416 0.015113621 0.054169264
000340 4c 42 24 3d 77 27 b9 3c e4 6d af bb b5 8c e1 bd
       0.040102288 0.022601826 -0.005353676 -0.11013166
000350 1b 96 cd bc 21 bc dc bd 27 95 af bd 77 cb 27 be
       -0.02509599 -0.1077807 -0.085733704 -0.1638621
000360 cf 40 57 bd eb ed e9 3d 92 93 0f be 37 25 dd bd
       -0.05255204 0.114223324 -0.14021137 -0.10798114
000370 8e a3 56 bc 95 12 98 bd 2e 57 0d 3e d7 56 9c 3d
       -0.013100518 -0.07425419 0.13802788 0.07633751
000380 fe 19 98 3d 58 03 58 bd c9 80 0f bc 86 13 6a bd
       0.074268326 -0.052737564 -0.008758732 -0.057147525
000390 19 cc 6d 3d db ef 1c bd 0f 3b b8 3d d6 05 00 bd
       0.05805597 -0.03831468 0.089956395 -0.031255566
0003a0 ca b8 97 3d 20 b6 2c 3d 3f 30 ee 3c 8c 58 4b bd
       0.074082926 0.042165875 0.02907574 -0.04964499
0003b0 b0 b0 de bd 2d 70 be 3c da 5e 46 3b 6e cb bb 3d
       -0.10873544 0.023246849 0.0030268938 0.091696605
0003c0 2a 74 17 3d bf c0 76 bc 88 50 d5 3c 46 ce 25 bd
       0.036976017 -0.015060603 0.026039377 -0.04047992
0003d0 2d 89 7d bd a1 2f a9 bd 1f ec 0e be bb 18 a4 3c
       -0.0618984 -0.082610376 -0.1395726 0.020031324
0003e0 f4 41 11 bd 5d 77 b6 3d c1 32 b8 bc 65 30 f4 3d
       -0.03546329 0.089094855 -0.022485139 0.11923293
0003f0 18 d7 00 3d f1 fc f1 3b 44 c0 01 be 29 c6 aa bd
       0.03145513 0.0073848893 -0.12671 -0.08338577

fc2.bias f4 [256]
000000 23 69 51 3e 2d 47 ec 3d 5c 5f 94 3d 0f 8c 37 3e
       0.20450263 0.11537013 0.07244751 0.17924522
000010 85 7c 36 3d 02 c0 ee 3d b6 0e 70 3e 59 90 d4 3b
       0.044552345 0.11657716 0.23443112 0.006486934
000020 bf 99 21 3e 95 b9 34 be ec 61 12 be 49 ba 62 3c
       0.15781306 -0.17648919 -0.14295167 0.013838359
000030 bb b0 91 bd 67 e2 ed 3d ba 5f a9 bd ca 12 04 be
       -0.07113787 0.116154484 -0.082702115 -0.12897792
000040 52 0f 48 3e 06 09 50 bd 51 ef 1d be 1b b1 ee 3d
       0.19537094 -0.050789855 -0.15423323 0.11654874
000050 65 4e f2 bc 99 02 a2 bd d9 19 d4 3c 3d ec c7 3c
       -0.029578397 -0.07910652 0.025891231 0.02440464
000060 f3 b1 84 bd 97 9d 17 be 43 f7 4f 3e 7f 65 24 3d
       -0.064792536 -0.1480621 0.20309167 0.040135857
000070 c3 7c 04 3d 8d a1 69 3e 35 6e 8e bd de 86 c4 3d
       0.032345545 0.22815533 -0.06954614 0.095960364
000080 ce 58 28 be d3 a9 1d 3e c9 b1 f9 3d f2 75 32 3e
       -0.16440126 0.15396814 0.12192113 0.17427805
000090 51 08 81 3e fb d3 ad 3d 68 7f 3b 3e f1 3d f0 bd
       0.25201657 0.08487698 0.1831032 -0.117305644
0000a0 77 5d ff bd ec a2 0b 3e c7 ef ad 3d 01 99 20 3c
       -0.12468999 0.13636369 0.084929995 0.009802104
0000b0 b2 e7 c9 3a 43 76 e9 bd a7 3e 07 3e 0e 7d af 3d
       0.0015404134 -0.1139951 0.13207494 0.08568774
0000c0 0d e4 37 3e 61 93 cc bd 79 98 62 3d bd af 9d 3e
       0.17958088 -0.09989048 0.05532119 0.3079814
0000d0 4e 18 5d 3e 78 64 db bd b2 49 d0 bd 44 75 f5 bc
       0.21591303 -0.10712522 -0.10170306 -0.029963143
0000e0 30 f4 36 bd 48 97 44 3e 5b 8e 09 3e ae b5 7e 3e
       -0.04466647 0.19198334 0.1343321 0.24873993
0000f0 a2 31 e1 bd 04 f2 8a 3e 00 e2 9f 3e 93 cc 62 bd
       -0.10995795 0.27137768 0.31227112 -0.05537088
000100 a7 93 1d 3e 45 ab e2 3d 5a a4 ae 3c c5 27 88 3e
       0.15388356 0.11067823 0.021318603 0.26592842
000110 cc 66 06 3e c4 7a 57 3c c6 8c 9a 3d ea b5 d3 3d
       0.13125151 0.013151828 0.07546382 0.10337432
000120 f9 f8 65 bd 07 48 dd be f8 2b 0a 3e ab 57 01 bf
       -0.056145642 -0.43219015 0.13493335 -0.50524396
000130 10 6e 27 be 85 37 58 bc 62 0d 6a 3d 3b 1a 96 bd
       -0.1635058 -0.013196831 0.05714167 -0.07329222
000140 40 7f 3a 3e a8 83 1d be d1 b7 cc 3d 66 12 a5 3e
       0.18212605 -0.15382254 0.09995998 0.322406
000150 6a 13 cc 3d 40 64 bc 3d 6e b6 88 3e fc ec b7 3c
       0.099646404 0.09198809 0.26701683 0.02245187
000160 e5 81 38 3d 25 aa c1 b9 8f 09 9c 3e 67 01 1d 3e
       0.045045752 -0.00036938596 0.30476043 0.15332566
000170 cb 57 8a bc 3a 54 84 3e d0 d9 e9 3d 7e 5a 88 bc
       -0.016887566 0.2584551 0.114184976 -0.016644713
000180 8b 4a e1 bd 3d 03 b1 3d 8b 6a f5 3d 54 7d 16 bd
       -0.11000546 0.08643196 0.11983212 -0.036740616
000190 ca c0 2a 3d d0 94 d9 3d 05 3b bd bd 0d 36 c5 3d
       0.041687764 0.10624087 -0.09239773 0.0962945
0001a0 0c 5f de 3e a5 e1 a1 3d 58 e0 a6 bb f6 78 50 3d
       0.4343189 0.079043664 -0.005092662 0.050896607
0001b0 71 d9 0e be dc 7e 06 3b eb 33 69 3e 70 1f 38 3e
       -0.13950135 0.0020522391 0.22773711 0.17980742
0001c0 97 85 11 3e 1a 26 37 bd 87 d0 d2 3d f0 21 17 be
       0.14211117 -0.04471407 0.1029368 -0.1475904
0001d0 24 3f 8f bd 72 7a 95 bc 65 fb 81 be bf 01 61 3c
       -0.06994465 -0.018246863 -0.2538711 0.013733326
0001e0 4c a4 79 3e 32 cb dd 3d 3f fe 9e 3e 36 1b 97 3d
       0.2437908 0.10829772 0.3105335 0.07378237
0001f0 b3 87 6e be 11 cd 4c 3c 0f 03 b2 3d bc 32 33 be
       -0.23293953 0.0125000635 0.0869199 -0.17499822
000200 ba a9 cc bd 5f 17 93 3d e5 12 8e 3e fe 9d 9e 3c
       -0.0999331 0.07182192 0.2774879 0.019362446
000210 de ed d2 be 7c 74 23 3e ba f4 13 bd 07 81 be 3a
       -0.41197103 0.15962404 -0.03612206 0.0014534303
000220 a0 42 8b 3b 25 69 7e 3e e0 e7 e3 3d 28 d0 fb 3c
       0.0042498857 0.24844797 0.11128211 0.030738905
000230 88 dd 61 3d 6f 30 9b 3e ff ed 81 be 3d 45 d6 3d
       0.05514291 0.3031039 -0.2537689 0.10462425
000240 88 43 56 be 81 37 b5 3c d6 89 db 3d 5d 23 0e 3b
       -0.20924199 0.022121193 0.107196495 0.0021688559
000250 9b 0f 84 3e bf 75 d8 bc 86 60 aa 3e 5d c8 1a bd
       0.25793156 -0.026423333 0.33276767 -0.037788738
000260 8c d6 c6 bd af b8 30 3e 07 c1 78 3d 96 8b 8b 3d
       -0.0970889 0.17257951 0.06073096 0.06813733
000270 e8 7d ff bd ab 5e 81 3d 11 67 4e bd 40 1b 32 be
       -0.124751866 0.063168846 -0.05039126 -0.17393208
000280 85 34 04 bd bb 9d aa 3e 83 84 4e 3d 03 8a 9a 3e
       -0.03227665 0.33323464 0.05041934 0.3018342
000290 06 7e bb be 35 43 4d 3e ef 3e 17 bd 98 b3 88 3e
       -0.36619586 0.20045169 -0.036925253 0.2669952
0002a0 4e 39 64 bd d3 e8 04 bd 0a 64 aa 3d 2e a6 51 3e
       -0.055718713 -0.0324486 0.08319862 0.20473549
0002b0 75 5f b8 bd 8e a4 1f be 4c 10 d9 bd 37 14 46 be
       -0.09002582 -0.15590116 -0.105988115 -0.19343649
0002c0 fe 2a 32 3e 22 9e cc bc f9 98 85 3d 31 d7 ec 3d
       0.17399213 -0.024977747 0.06523318 0.11564482
0002d0 fd 08 30 3d 27 76 d9 3e 39 21 a2 3e 9f ac 6e 3e
       0.042977322 0.42472956 0.31665972 0.23308037
0002e0 44 05 81 3d 14 7e fd 3c f3 3f c1 bd 95 ab dd bd
       0.062998325 0.030943908 -0.094360255 -0.10823742
0002f0 f3 3f cf bd 8a 63 10 bd df 51 37 3d dd 02 0a bd
       -0.10119619 -0.035251178 0.044755813 -0.033694137
000300 4f 19 3e be 26 54 c5 bd 2e 41 d4 bc e6 08 8b bd
       -0.18564342 -0.09635191 -0.025909986 -0.067888066
000310 2d 62 0c 3e 61 4e c4 3d e7 1f 3d 3d bf ce 0c bd
       0.13709326 0.09585262 0.046173003 -0.034376856
000320 cc ab ac 3d 34 1d cd be 36 f4 10 3e 62 cf 0c 3e
       0.08431205 -0.40061343 0.14155659 0.13750985
000330 b8 26 75 3e c5 05 16 bd bd a7 ed 3b fb 9d 76 3e
       0.23940551 -0.036626596 0.007252662 0.24083702
000340 0b cb d4 3d 7d 32 99 3e 72 ca b1 bd 2c 61 2e 3e
       0.1039029 0.29921332 -0.086811915 0.17029256
000350 46 64 0d bc d2 19 cc 3c a4 8c 2f 3e 98 de ec bd
       -0.008629864 0.024914656 0.17143494 -0.11565894
000360 b7 68 09 3e 11 06 95 bd 9d 8e 1d bc 10 f6 0e be
       0.13418852 -0.07276548 -0.009616521 -0.13961053
000370 66 cf a4 3d 61 96 fc bd 04 c8 28 3e 93 ae 52 3d
       0.080473706 -0.1233337 0.1648255 0.05143602
000380 bf cb 3e 3e 60 99 35 3e 5e 9d b3 3c dd 78 f7 bd
       0.1863241 0.17734289 0.021925624 -0.120836
000390 be 2a c9 3d 3c 65 20 be 8a e6 c2 bc bf 5c db 3d
       0.098226056 -0.15663618 -0.02379157 0.10711049
0003a0 b9 ec c3 3d 36 d2 d0 bd 52 cf a7 bc dd 45 b6 bd
       0.09566636 -0.101963446 -0.0204846 -0.08900044
0003b0 70 83 94 bc e3 50 e8 3c d1 53 40 3e 0c 37 3c 3e
       -0.01812908 0.028358882 0.18781973 0.18380374
0003c0 2a 0e 1b 3b bc e3 dc bc c5 26 81 3d c9 a3 d1 3b
       0.0023659565 -0.026964061 0.06306223 0.0063976985
0003d0 fb 87 d7 3d e5 73 dc 3c b0 9a de bd 57 09 29 be
       0.10523983 0.026910732 -0.10869348 -0.16507469
0003e0 5d a3 88 3d 4d ef 10 3c 76 9e 1d 3e 9e 04 dc 3a
       0.06671784 0.008846116 0.1539248 0.0016786044
0003f0 0e c7 81 be 12 39 ce bc 9e c5 4a 3e c6 c2 21 be
       -0.2534718 -0.025173698 0.19801947 -0.15796956

fc3.weight f4 [512, 256]
000000 e5 9e 5c bd d3 57 b3 3a 23 e4 ac bc 34 98 85 3d
       -0.05386247 0.001368279 -0.021104878 0.06523171
000010 e6 83 b6 bc f2 5e d1 bc 68 64 59 bd 0f 3d dd 3b
       -0.022279691 -0.025557969 -0.05307427 0.0067516635
000020 ae e3 9b bb 26 0d 20 3d 59 55 9d 3c 5a 6b 50 3d
       -0.004757366 0.03907504 0.019205736 0.05088363
000030 82 99 1b bd ec 77 02 3d 27 a9 2d bc 7d 51 de bc
       -0.037988193 0.031852648 -0.010599411 -0.027138466
000040 5b 43 8a 3c 07 ed 40 3c 3c 97 1e bb 04 47 d3 bc
       0.01687782 0.011775262 -0.002419903 -0.025790699
000050 59 00 9c 3a c6 ed cb 3c 3f 49 b1 bb 80 d9 90 3d
       0.0011901959 0.024893653 -0.005410343 0.07072735
000060 46 19 e6 3a 4c f2 9e bc b0 84 c8 3c e2 d2 13 3b
       0.001755514 -0.019402646 0.024477333 0.0022556116
000070 02 74 5b 3c df 85 b4 3c d1 65 c0 3c f7 e8 63 3c
       0.013394358 0.022036491 0.02348605 0.013910524
000080 65 fd 89 3d 35 5a ee 3b 7c dd 9c 3c d2 c2 d4 3c
       0.06737784 0.007273937 0.01914858 0.025971804
000090 0a 10 b6 bc 94 d1 e9 bc 14 82 9c bc 67 5a 3c bc
       -0.022224445 -0.028542317 -0.019104995 -0.011496163
0000a0 1e 53 16 3d c0 51 5b bd e6 03 90 3d f9 ab 2d 3d
       0.03670036 -0.05354476 0.070319936 0.042400334
0000b0 1c ae 2e 3c e5 de 95 3d c0 67 35 bd 78 5d 27 bb
       0.010661628 0.073179044 -0.044288397 -0.002553789
0000c0 31 e1 69 bd a7 aa 24 bd 28 ca 1c 3d 66 0d 11 3d
       -0.057099525 -0.04020181 0.03827873 0.03541317
0000d0 4c 19 80 bd 31 49 b8 bb ff c8 bc ba 8d 42 4c bd
       -0.06254825 -0.0056239595 -0.0014403163 -0.049868155
0000e0 39 2a 90 bb e7 be 20 bc a8 fb 7a bd e5 44 33 bc
       -0.0043995646 -0.00981114 -0.061275154 -0.010941719
0000f0 20 82 90 3d a7 d3 29 3d 8c 12 08 3d 35 a0 f8 3b
       0.070560694 0.041461613 0.033220813 0.0075874575
000100 76 7b ba 3c a8 54 5d bd b5 47 0c bd 82 c3 67 3d
       0.022763949 -0.054035813 -0.034248073 0.056582935
000110 d4 5a b3 bc 7b 4b 64 bd ca d5 2e 3d 2d e3 40 3d
       -0.021893896 -0.055736046 0.042684354 0.04709165
000120 1f 6d 0b bd 16 51 81 bd 2c ab 15 3d 6c 6c 29 bc
       -0.034039613 -0.06314294 0.036540195 -0.010340791
000130 d6 8d 04 bd a6 d8 67 bc 25 62 70 bd f7 29 97 bc
       -0.032361828 -0.014150774 -0.058687348 -0.018452628
000140 49 96 83 bc f7 33 12 3d 51 55 62 bd 99 9f ba ba
       -0.016062872 0.03569409 -0.055257145 -0.0014238238
000150 20 6b 3c 3d 4d c2 fb bc 28 8a 64 3d 92 05 46 3d
       0.0460006 -0.030732298 0.05579582 0.048345156
000160 d2 10 a7 bc 96 4d 00 bd 11 d2 80 3d 13 8d 51 3d
       -0.020393763 -0.03132399 0.06290067 0.05115993
000170 45 d9 f3 bb 71 dd dc 3c 28 01 bd bc 98 bf c8 3c
       -0.007441672 0.02696106 -0.02307184 0.024505422
000180 84 40 ff 3c 2b 6b 2e 3d cb 0d 64 3d f3 cd e9 3b
       0.031158693 0.042582672 0.055677217 0.0071351468
000190 85 ea f2 bc 85 39 66 bd 3a 5b 1e 3d e5 69 25 bd
       -0.029652843 -0.0562072 0.03866122 -0.040384192
0001a0 f0 0b b7 3a a8 f3 85 3c ea bb a5 bd e8 13 fc 3c
       0.001396535 0.016351536 -0.080924824 0.03077121
0001b0 42 c2 7a bc 96 8f 10 bd ee 56 4c bd 69 b8 87 3d
       -0.015305104 -0.035293184 -0.04988759 0.0662697
0001c0 0f 73 0d bd 89 fa 1c 3c 8f af 84 3d 54 4a 59 bc
       -0.034533557 0.009581217 0.06478798 -0.01326235
0001d0 cd d3 6b bd cb 69 b9 bb 22 38 a7 3c 76 fd 49 3d
       -0.057575036 -0.0056583635 0.020412508 0.049313985
0001e0 67 66 b0 bc 24 09 57 bd 3d dd 5c bd f6 a4 38 bd
       -0.021533204 -0.05249895 -0.053921927 -0.045079194
0001f0 7c 5c eb 3c 80 4f 89 3d 4c 67 19 3d a8 1f bf bc
       0.028730623 0.067046165 0.037452027 -0.023330525
000200 dd 6e 71 bd 08 d3 97 3c 43 f7 34 bd a4 b3 7d 3d
       -0.058943618 0.018533245 -0.04418112 0.061938897
000210 f7 98 e6 3b 66 ef 66 3d 34 66 14 bb ef 5e 28 bd
       0.007037278 0.056380652 -0.0022643926 -0.04110616
000220 ea ef f4 bb 1a 39 18 3c ef d6 38 bd 92 4f e8 bc
       -0.007474889 0.009290958 -0.04512685 -0.028358255
000230 c9 68 15 bd 42 37 2f bd e9 c8 84 3c 05 56 89 bd
       -0.036476884 -0.042777307 0.016209083 -0.0670586
000240 5d d2 54 bd 9d 06 23 3c 78 1f d3 ba e5 ef 75 3d
       -0.05195843 0.009950307 -0.0016107401 0.060043234
000250 92 86 a7 bc 77 80 ad 3b 95 d4 4e 3c 36 c6 72 3d
       -0.02044991 0.005294855 0.012623926 0.05927106
000260 28 b0 1a bc df 2e 7c bd 0a 8f f1 bc 33 f8 e9 3c
       -0.009441413 -0.061568137 -0.029487152 0.028560733
000270 a2 d9 84 bd b8 9d 07 3d 4d d9 8a bd 07 01 68 3c
       -0.06486823 0.033109397 -0.06779728 0.014160401
000280 5d 9b 14 3d 59 5f 59 bd 9e d7 87 bc ed d3 54 3d
       0.03628098 -0.053069446 -0.016582306 0.05195992
000290 d3 70 51 3d 31 3a ce 3c be b0 eb 3c ff 90 89 3a
       0.05113299 0.025174232 0.0287708 0.0010495483
0002a0 6c 77 dd 3c 2c fd 9e bc 3a 08 19 bc 59 d6 bf 3c
       0.027034484 -0.019407831 -0.00934034 0.023417639
0002b0 27 76 3c 3d 35 2c 53 bd 47 1a 64 bd 5f 84 12 bd
       0.046011116 -0.05155583 -0.055689123 -0.03577077
0002c0 3b 9a e9 bc f5 9b 77 3d 6e 05 62 bd 0b 59 4c bd
       -0.028515926 0.060451467 -0.05518096 -0.049889605
0002d0 2c bb 9c 3c 8e b3 a7 3c 16 a7 54 3a 10 4e 81 bd
       0.01913222 0.02047136 0.0008112056 -0.06313717
0002e0 2a e4 aa bc 86 75 3a 39 1a 68 4a bd 13 7a 39 bb
       -0.02086075 0.00017782123 -0.049415685 -0.0028301522
0002f0 24 13 12 3d f2 4e 15 bd 9c b1 8d 3c d7 6d 5e 3c
       0.035662785 -0.03645224 0.017296605 0.013575993
000300 9c 35 e5 bc b0 bb b0 bb 0e ca 31 bd c4 9f 9b 3c
       -0.027979665 -0.005393468 -0.043405585 0.01899708
000310 88 0e 1f bd e0 a6 3a 3d 03 52 6a bd ba b7 ff bb
       -0.038832217 0.0455693 -0.05720712 -0.0078038843
000320 e0 af 1e bd f5 10 9e bc a7 84 89 bd 2f 6f 2f 3d
       -0.038741946 -0.019295195 -0.067147546 0.042830642
000330 4b 0b 7f 3b 0e ef 18 bd 81 91 25 bc 1d cf 4c bd
       0.0038916643 -0.037337355 -0.010105492 -0.050002206
000340 22 ac 4b 3d 39 17 b8 3c a6 28 16 bc b5 a4 42 bc
       0.049724706 0.02247201 -0.009164965 -0.0118800895
000350 e3 b5 2d bd 13 63 76 bd c2 a8 98 bd 95 c8 50 bc
       -0.04240979 -0.06015308 -0.07454063 -0.012743135
000360 c3 e0 dd 3b 59 55 67 bd ee 95 33 bd c7 88 a9 bc
       0.0067711785 -0.05647788 -0.043844156 -0.020695103
000370 e7 64 a4 3c 3f 8e 8a 3d 63 5c 96 3c 61 47 5c bd
       0.020067645 0.067654125 0.0183546 -0.05377901
000380 8a e0 8a bc 66 fc c6 bc 75 14 80 bd 00 4e 80 bb
       -0.016952772 -0.024290275 -0.06253902 -0.0039155483
000390 b0 f5 60 bd 99 0e 87 bb d6 86 80 3d 8e 15 48 bd
       -0.054921806 -0.004121613 0.06275718 -0.04884868
0003a0 bd 1f a0 3c d0 d7 50 3d 73 cf 97 3c 5b 39 5f 3c
       0.019546384 0.050987065 0.018531537 0.013624514
0003b0 5f 0d 8b 3b 0b d8 10 bd c5 c8 66 3d df 2f 2d bd
       0.0042435373 -0.035362285 0.056343812 -0.04228198
0003c0 15 27 d4 3c 3d 54 8f 3d 7d 36 0f bd 2d ac 1e 3d
       0.025897542 0.06998489 -0.034964073 0.03873842
0003d0 45 f7 b3 bc 29 b3 d8 bc 2d 55 02 3d 0c 5a cb bc
       -0.021968493 -0.026452618 0.03181951 -0.024823211
0003e0 dd a3 e1 bc 86 92 7a 3c ad 14 61 3d 2e 80 0c bd
       -0.027543956 0.015293723 0.05495136 -0.03430193
0003f0 cb c5 49 bd bc fb 3c bc c4 4a 91 bd e1 09 d4 3c
       -0.049260896 -0.0115346275 -0.070943385 0.025883617

fc3.bias f4 [512]
000000 f4 b5 02 bd 4b b5 12 be 3f 0b f8 3d 51 e2 a7 3c
       -0.031911805 -0.1432697 0.1211152 0.020493658
000010 75 13 bd 3d 0a b1 3f 3d 5e d8 05 ba 94 41 38 3e
       0.09232227 0.046799697 -0.00051057886 0.17993766
000020 e1 ab b4 bd f4 2b bc 3d fa 8d 2f 3e 14 44 29 3d
       -0.08821846 0.09188071 0.17144004 0.04132469
000030 83 00 a9 3d ec 75 aa 3d 61 82 20 3d b4 e1 c8 3c
       0.08252051 0.08323273 0.03918684 0.024521686
000040 ee 7c be 3d fd 20 4c 3e a4 ca b4 bd f8 fc cc 3d
       0.09301172 0.19934459 -0.08827713 0.100091875
000050 93 97 35 3d e7 1d 34 bc df d9 85 3d 4a d7 9b 3c
       0.044334006 -0.010993457 0.06535696 0.019023556
000060 30 b3 c8 bc 0b 16 0b 3e c9 88 58 3d 0f af a0 bd
       -0.024499506 0.13582627 0.052864823 -0.0784589
000070 7a 10 33 bd 47 ea e0 bc 5f 1c b3 3d 3e e3 8d bc
       -0.043716885 -0.027455462 0.08745646 -0.017320272
000080 d5 a9 4f bd 4e 1b 9c 3c f3 16 2b bd 4f 5f f5 3b
       -0.050699074 0.019055989 -0.041769933 0.0074881683
000090 05 3f f8 3d 28 6f 39 bd d8 f1 32 3e ce 0f 37 3d
       0.12121395 -0.045272022 0.17475069 0.044692807
0000a0 33 67 36 3e ec 30 0f 3e c0 a7 de 3d 19 25 f1 3d
       0.17812805 0.13983506 0.108718395 0.11774654
0000b0 13 f1 0f 3d eb d1 0d 3e ee 66 4d 3d a7 49 bd 3d
       0.035142016 0.13849609 0.05014699 0.09242564
0000c0 4d 0d d8 3d 4e 20 2d 3e 93 14 2d bd b4 55 d3 bc
       0.10549412 0.16906855 -0.04225595 -0.025797702
0000d0 29 75 41 3e 5f 12 97 bc c9 fa c1 3d d1 c2 a9 bc
       0.1889235 -0.018441377 0.094716616 -0.020722779
0000e0 95 d6 4d 3d 7c 2b 3c bd 24 29 f5 ba de 9d cd 3d
       0.05025347 -0.045939907 -0.0018704277 0.100398764
0000f0 93 d6 f0 3d 2c cc f7 3b 8e 9d 29 3e dc 23 cd 3d
       0.11759677 0.007562181 0.16564009 0.10016605
000100 1e 5e 53 3d f0 0f 5d bd f8 78 29 bd 66 fb 5a 3d
       0.05160343 -0.053970277 -0.04137513 0.05346241
000110 8f a9 de 3d a2 41 54 bb bf bf 30 3d 43 c9 3f 3d
       0.108721845 -0.0032387753 0.043151613 0.046822798
000120 42 ba c6 3d 0f d6 03 3e cb 54 a6 3d 01 4d 6d 3d
       0.097034946 0.12874626 0.08121642 0.057934765
000130 56 07 92 bc 69 e0 b3 3d 3d 19 97 3d b5 4f 70 3e
       -0.017825764 0.08783037 0.07377861 0.23467906
000140 6c b8 21 bd f5 bf d9 bc 5e 4b 77 3d ba 27 87 3d
       -0.03948252 -0.02658079 0.06037461 0.06599374
000150 95 6a 6a 3d 75 ad 49 3d 81 ca 92 3c b2 9d fe 3d
       0.05723055 0.049237687 0.017918827 0.12432422
000160 98 d9 4d 3a 14 cc 49 3d 98 87 ab 3c 44 99 03 3e
       0.00078525534 0.04926689 0.02093868 0.12851435
000170 83 0b 83 3b d5 03 3c 3d 3d bf 56 3e 2e 05 2e bd
       0.003999175 0.045902092 0.20971389 -0.04248541
000180 4d 3b 36 3e 90 08 84 3c 42 18 c1 bc 12 9a 2c bd
       0.17796059 0.016117364 -0.023571137 -0.04213912
000190 85 3a 88 bc c6 3b e2 bc 5b 66 a5 bd b0 a3 e3 3d
       -0.016629467 -0.027616393 -0.080761634 0.11115205
0001a0 d1 55 94 bd e1 0c 18 bd 1b 73 42 3e c0 48 43 bd
       -0.07242931 -0.037121657 0.18989222 -0.0476768
0001b0 df 70 2f bc a0 8e dd 3d 23 e0 45 3e 73 2c f7 ba
       -0.010708063 0.10818219 0.19323783 -0.0018857851
0001c0 c4 7f cc 3d a0 0f e7 3c b3 df 02 3d 67 01 27 3d
       0.09985307 0.028205693 0.031951617 0.04077282
0001d0 f5 8d 3f 3d 4f 1d e3 3b 49 e0 a4 3b d7 ca 15 3b
       0.04676624 0.006930984 0.0050316197 0.0022856498
0001e0 11 fd 4b 3e 33 9f e9 bc 93 46 99 3b 81 6c 1c 3d
       0.19920756 -0.028518295 0.0046776026 0.038189415
0001f0 f3 fc fd 3c ee dc 14 bd 0b 09 69 3c 62 b0 9f 3d
       0.031004405 -0.036343507 0.014223347 0.07797314
000200 3d 87 b1 3b 83 04 af 3d 4c a4 51 3d d7 bf 02 3c
       0.005417733 0.085457824 0.051182076 0.0079803085
000210 c6 b7 02 bd d6 44 01 3d 58 6c c5 3c b1 a8 ea bd
       -0.03191354 0.031559788 0.024099514 -0.114579566
000220 0f 19 f0 3c 6b c6 a4 bd 5c cb c0 bb 99 9d 65 3e
       0.029308824 -0.08045658 -0.0058836173 0.224234
000230 0e 36 54 3e bd 70 9f 3d 87 01 9f 3d 86 fb 20 3e
       0.20723745 0.07785175 0.07763963 0.15720949
000240 a1 4f aa 3d a1 f3 48 3e 85 3a 89 3d 65 cd 50 3d
       0.08315969 0.19624187 0.06700615 0.05097713
000250 a8 37 07 3d 4f 92 28 3d 0d f0 6a bc 32 17 63 bd
       0.033012062 0.041155156 -0.014339459 -0.055442043
000260 8e 07 81 bd 1a 8f 69 3d db d5 bd bc 95 24 77 bc
       -0.06300269 0.057021238 -0.023173263 -0.015084405
000270 9a 44 a4 3d 0d b9 27 3e f2 0c a3 3c fb e5 b5 3d
       0.08020897 0.16379185 0.019903634 0.08881756
000280 88 1c aa 3d 2f e3 34 be 1f 51 10 3c 01 3a 1d be
       0.08306223 -0.17664789 0.008808403 -0.15354158
000290 5b 13 1f bd 2f d6 f7 bd fb d5 4d 3d 79 41 6c bd
       -0.03883682 -0.12101399 0.050252896 -0.057679627
0002a0 ac 3a ac bc 70 9d f4 3c e8 b1 0c 3c 18 0e 40 3d
       -0.02102407 0.029860228 0.008587338 0.04688844
0002b0 e6 ef 84 3d d8 aa b1 3d 82 56 18 be e2 3a 0c be
       0.064910695 0.08675164 -0.1487675 -0.13694337
0002c0 31 a1 90 bb 74 f6 c8 bc 5f 65 0a 3e 45 2e 0a be
       -0.0044137468 -0.02453158 0.13515233 -0.13494213
0002d0 2d 64 46 3e 9f 27 c7 3c 06 b8 28 bc ef 1d a6 3d
       0.19374152 0.024310885 -0.010297781 0.08111178
0002e0 66 6d 93 3c 4b 84 9c bd 3d 42 57 3e 96 e6 5d 3d
       0.017996501 -0.076424204 0.21021362 0.054174982
0002f0 e5 05 d7 bd a1 e2 cd bc 7f bb 24 ba 6b 0d 46 bc
       -0.10499171 -0.02513248 -0.00062840426 -0.01208816
000300 e3 7c b7 3d 50 50 4e 3c e4 c7 59 3e 56 70 15 3e
       0.08959367 0.01259239 0.21267658 0.14593634
000310 cd 9e b0 3c 8d 6a 47 3c 1f 0e 53 bd c4 c4 26 bd
       0.021560097 0.0121714 -0.05152714 -0.040714994
000320 83 52 fb 3c fc 64 fc 3d 83 82 16 3e 36 1a 60 3c
       0.030678993 0.12323949 0.14698224 0.013678124
000330 4e 52 36 3e d6 d9 02 be e8 76 a0 bd be 7b 3c 3e
       0.17804834 -0.1277841 -0.078351796 0.18406579
000340 d7 5f ec 3d 5d 57 3f 3d 03 b2 05 3e d2 86 ca 3c
       0.115417175 0.046714175 0.13056187 0.02472249
000350 cc 8a 55 3d 4c b2 4c 3d 88 60 68 bd 33 ce 70 3d
       0.05213432 0.049974725 -0.056732684 0.058790397
000360 f6 2e 08 3d dc 2a 5d bd 71 eb b2 3c 8e 5c 1c bd
       0.03324791 -0.053995952 0.021840783 -0.038174205
000370 f0 2a 17 3e c8 44 e6 ba 97 11 18 3d e1 78 77 bc
       0.14762473 -0.0017568106 0.03712615 -0.015104503
000380 a7 b5 03 be 5d 3f be bc 08 1b 32 3d f9 99 4c 3d
       -0.12862264 -0.023223573 0.04348281 0.049951527
000390 0b 5b 28 bd 6d 76 ce bd 45 04 2b 3e be 2e 03 3e
       -0.04110245 -0.10081182 0.16700847 0.128108
0003a0 20 26 a7 3c c2 d3 9d 3d 84 6a f5 3d b5 c7 f4 3d
       0.020403922 0.07706405 0.11983207 0.119521536
0003b0 51 96 54 bc 7d 37 77 3d 66 80 f3 3d c9 fd d7 3d
       -0.012975291 0.060355652 0.118897244 0.105464526
0003c0 6f 4e 8d 3e 80 67 9f bc a8 65 a2 3d e6 ac 61 3e
       0.27598903 -0.019458532 0.07929546 0.22038612
0003d0 87 2a 3c 3d 68 98 85 39 ab d6 03 bd 34 11 a9 bd
       0.045938995 0.00025481288 -0.032187145 -0.08255234
0003e0 e3 6e 03 3d a4 80 20 3e 09 af a3 3c 0d c6 ff bc
       0.03208817 0.15674073 0.019980924 -0.031222368
0003f0 8a ab ed 3c d0 7b 4b be 64 d6 ff 3d 73 6c 66 bd
       0.02901246 -0.1987145 0.12492064 -0.05625577

fc4.weight f4 [64, 512]
000000 18 fd b5 3c 4c de e6 3c 41 a6 bb bc fd 01 05 ba
       0.022215411 0.028182171 -0.022906424 -0.00050738436
000010 df 7e ad bc e3 f0 f8 3b 4f cd 43 3d ac 43 72 3c
       -0.02117866 0.0075970753 0.04780322 0.014786642
000020 9b 75 1c bd d4 b9 9e 3c ba c6 98 bc e4 95 42 bd
       -0.038198095 0.01937572 -0.018649448 -0.047506228
000030 30 16 e9 bc e7 09 80 3c 37 2b 2f bb bf d8 98 3c
       -0.028452963 0.015629722 -0.002672864 0.01865804
000040 46 8f 57 bd da 56 e9 3b 5d 73 69 3d 2a 1d 58 bc
       -0.05262687 0.007120949 0.056994785 -0.013190547
000050 9f bf b5 bc a1 eb 8c 3c 6e 95 d8 bb 5c 81 10 bd
       -0.022186099 0.0172022 -0.0066096103 -0.035279617
000060 75 68 e3 3b 1d 41 75 3c 37 04 0e 3b 67 df 01 bd
       0.0069399425 0.0149691375 0.0021669993 -0.031707194
000070 c1 21 92 3c 2e d4 2f 3d 74 bc 4a 3b 6d 24 19 3d
       0.01783836 0.04292696 0.003093508 0.037388254
000080 80 74 7c 3d 89 e8 55 3c 39 8f 16 3d 99 77 61 3c
       0.06163454 0.013055929 0.03675768 0.013761424
000090 1d 64 01 3c 4d 30 97 3d 8e 9f a7 bc b6 73 e0 bc
       0.007897404 0.073822595 -0.020461824 -0.027398925
0000a0 48 42 25 3d 3e 57 10 3a 7c 54 39 bb e9 a1 9a bc
       0.040346414 0.0005506164 -0.0028279116 -0.018876033
0000b0 3a a6 8a 3d 50 49 93 bd 05 22 3f bd c6 69 50 bd
       0.067699865 -0.071917176 -0.046663303 -0.050882123
0000c0 36 3e 9e 3d 9b 54 62 bd c3 a1 37 3d 99 4e e7 3c
       0.077267095 -0.055256467 0.044832002 0.02823572
0000d0 a7 77 44 bd 45 fc 05 bd 11 47 9f bc a7 72 99 3c
       -0.047965672 -0.032711286 -0.019443067 0.018731428
0000e0 b8 d2 f1 bc 0a 9a ce bc 57 25 28 bc 3b c8 2f bd
       -0.029519424 -0.025219936 -0.010262809 -0.042915564
0000f0 fa 3b 74 3c 0d b5 00 3d ae 77 33 bd b0 9e 6f bc
       0.014906878 0.031422663 -0.043815307 -0.014625236
000100 8b 55 7e bd fe c3 cb bc 1c 93 13 3d f6 8d 20 bd
       -0.0620933 -0.02487373 0.036028966 -0.039197885
000110 3a fd d2 3c 7f 02 96 3b 8e bf 64 bd 1f 05 f5 3c
       0.025755513 0.0045779343 -0.055846743 0.029909668
000120 97 82 3e bd b4 13 1f bc 97 35 8b bc fb 2d 18 3d
       -0.04651126 -0.009709287 -0.016993327 0.037153225
000130 1b c0 cc bc 59 26 5d bd 2b d8 20 bd 77 2a a3 3c
       -0.024993947 -0.05399165 -0.039268654 0.01991771
000140 21 de 6d bd 0a 88 8e bb cc d4 d8 3a f9 95 84 3b
       -0.058073167 -0.004349713 0.0016542911 0.0040461984
000150 29 c6 43 3c 3e b5 83 3d d7 32 1d 3c 68 78 12 3d
       0.0119491005 0.064310536 0.009594641 0.03575936
000160 9e 90 37 3d 7f 48 d1 bc 55 d9 9c 3d 05 72 d0 bc
       0.044815652 -0.025547264 0.0765864 -0.025444994
000170 2f 25 46 bd 18 9a 31 bc 35 86 fe bc 54 30 28 bd
       -0.048375305 -0.0108399615 -0.031069854 -0.041061714
000180 e9 fa 06 3d 6a 3d 7a 3c 7b 40 71 3d 38 19 80 bc
       0.03295413 0.015273431 0.058899384 -0.015637025
000190 35 5a 77 3a b0 ba 70 3c af fb 44 3b 85 43 0a 3b
       0.0009435744 0.014692947 0.0030057242 0.0021097374
0001a0 93 0d f5 bc ca dd cc 3d 53 b1 80 bc 9f 4c f8 3c
       -0.0299137 0.100032404 -0.015709555 0.030309973
0001b0 20 5a 80 3a 88 91 81 3c 27 6c 44 b9 5c 0a d2 bc
       0.0009792484 0.015816465 -0.00018732306 -0.025639705
0001c0 0e a2 56 bd 3a e7 fd 3c c2 db 1d 3d 93 a9 77 3d
       -0.05240064 0.030994046 0.038539656 0.060464453
0001d0 6a 80 09 3d 1d 46 a4 3c e3 dc 66 3d 25 f3 84 3c
       0.03356973 0.020052964 0.056362998 0.016229222
0001e0 bc bb f9 bc d0 b6 e3 bc 17 1b 03 bd 47 62 d5 bc
       -0.030485027 -0.027797133 -0.032008257 -0.026047839
0001f0 41 3c 68 3b c7 11 dd 3b fc f3 46 3d 84 ff 40 bc
       0.0035436305 0.006746504 0.048572525 -0.01177967
000200 e6 14 4b bd 62 ec 10 bd 22 a7 b5 bc a0 a6 9d bc
       -0.049580477 -0.035381682 -0.022174422 -0.019244492
000210 b7 b8 bf bc ad 37 c9 3c dc 9d d8 3c fc 00 bc bb
       -0.023403509 0.024562681 0.02644246 -0.005737422
000220 eb 4d 26 3d 79 1d b8 3c 6e bb d8 bc 09 76 0b bd
       0.040601652 0.022474991 -0.026456561 -0.034048114
000230 56 5d b2 3c 1a 52 87 3c 06 84 b9 3a e5 c3 fd 3c
       0.021773022 0.016518641 0.0014153726 0.030977199
000240 30 42 b7 3c 4b 40 29 bc b1 50 fe 3c e5 87 8a 3c
       0.022370428 -0.01033027 0.031044336 0.016910503
000250 ce c6 8d bd fe 93 b3 bb c0 9d 0f 3d 2b f1 c5 3c
       -0.069226846 -0.0054802885 0.03506255 0.02416285
000260 d8 d0 a6 bc e2 fc fd bb d2 f9 8b bc 71 59 4c 3d
       -0.020363256 -0.0077510932 -0.017086897 0.049889985
000270 56 06 b5 3c 60 1e 02 3d 2e 97 02 bc 54 cb dd 3b
       0.022097748 0.03176725 -0.007970614 0.0067686234
000280 29 2e aa 3b 9a b6 1a bc 2b 31 1f 3d 0f 76 34 bd
       0.005193491 -0.00944295 0.03886525 -0.044057902
000290 31 1e f3 bc 6f ae 03 3d f2 a0 e6 bb 29 16 e1 3c
       -0.029677482 0.032148775 -0.007038229 0.027476387
0002a0 36 61 9a bc 03 a5 73 3d 7f ee 6c bc 68 e8 49 bd
       -0.018845182 0.05948354 -0.014461159 -0.049293905
0002b0 92 70 83 bc 7c a1 c4 3b 75 05 af 3c 6a 12 2e 3d
       -0.016044889 0.0060006958 0.021364907 0.04249803
0002c0 9e 50 d5 ba 73 cc af 3c 59 32 b0 bb dd 67 c0 3c
       -0.0016274636 0.021459794 -0.0053770957 0.023487026
0002d0 91 b3 96 3c 2e 8f a6 bc 4a 96 5b bb 81 e0 3f bd
       0.01839617 -0.020331945 -0.0033506327 -0.046844963
0002e0 45 bf 17 3d 32 f1 34 3c b4 7f 56 bb f2 f6 fc 3b
       0.037047643 0.011043834 -0.0032729926 0.007719868
0002f0 29 08 f6 3b c5 0b 7e bc 56 11 57 bd c7 65 8c 39
       0.007508297 -0.015505736 -0.052506767 0.0002677871
000300 87 e5 2c bd 9e eb e2 bc f7 95 59 bc 85 7e 45 bc
       -0.04221108 -0.027700242 -0.013280383 -0.01205409
000310 ff af 4c 3d 00 9d 87 bb fa 53 87 3c 42 ef 65 3c
       0.04997253 -0.004138589 0.016519535 0.014034094
000320 96 6a 33 3d 74 22 f9 3b c7 fa b6 bc fb 01 2c 3d
       0.04380282 0.007602984 -0.022336377 0.041994076
000330 c2 a7 02 bd b5 a0 7e bb e6 45 28 bd 08 6b 91 bb
       -0.031898268 -0.0038853113 -0.041082285 -0.004437808
000340 74 38 e0 3c 83 f4 1d bd 30 90 68 bd 39 38 92 bc
       0.027370669 -0.038563263 -0.056778133 -0.017849075
000350 46 d1 17 bd bc da 0c 3d f2 4c 8c bc 4a 25 6d 3c
       -0.037064813 0.03438829 -0.017126534 0.014474222
000360 a5 46 1b bd f6 4c 9d bc 2e ed 21 bd d6 84 15 3d
       -0.03790917 -0.019201737 -0.039532833 0.036503635
000370 6a 7e 14 3d b0 cc e3 3c ac 66 16 bd d0 41 3e 3c
       0.03625337 0.027807564 -0.03671901 0.011612371
000380 e0 48 3d 3d 0b 25 0d 3d 96 3a 07 bb 3c 44 31 3c
       0.046212077 0.034459155 -0.0020634285 0.010819491
000390 4f ec 67 bb 86 65 94 bb ad b1 87 3d c4 4d 24 3c
       -0.0035388654 -0.004528704 0.06625686 0.010028306
0003a0 15 50 54 3c 87 fa 08 3d 17 5c be bb e2 fb 42 3d
       0.012958546 0.033442046 -0.005809318 0.047603495
0003b0 57 bf 0b bc d6 21 2b 3d 3e 9f aa 3c 1d b7 3b bd
       -0.008529506 0.041780315 0.020827886 -0.045828927
0003c0 05 4d 37 bd 5e 5e 44 bd b7 89 bc 3c 64 92 2e 3c
       -0.044751186 -0.047941558 0.023014886 0.010655019
0003d0 53 d7 00 3d ce d5 d5 3c 74 43 76 bc 87 e8 03 bd
       0.03145535 0.026102927 -0.0150307305 -0.032204177
0003e0 4a 64 47 3c 46 ec ed bc 8a 82 4b 3d 31 6d 7f 3c
       0.012169907 -0.029043328 0.04968504 0.015589998
0003f0 49 0d c2 bc 85 94 d3 3b 8b 22 53 3c 76 54 b0 3c
       -0.023687975 0.006456914 0.012886654 0.02152465

fc4.bias f4 [64]
000000 53 ef ec 3c 87 d6 7b 3e 4d 4b 42 3d 1e 1d cf 3c
       0.028922712 0.24593554 0.047435094 0.025282439
000010 9c cb 2f 3e 32 ce 0a bd 77 9a 0f 3c 8a da 68 3c
       0.17167515 -0.03388805 0.008764855 0.01421226
000020 63 0b 15 3e f4 e0 53 3e 70 bb 51 3e 4a 83 9f 3e
       0.14555125 0.20691282 0.20481658 0.31154853
000030 72 48 1c 3f f0 fb d3 3d c9 35 8a 3d 26 8e 27 3d
       0.6104804 0.10350788 0.0674854 0.040907048
000040 7d ae 0b 3e 14 7f 38 3c 52 b8 f5 3e 0e 5a b4 3c
       0.13640781 0.011260767 0.47992188 0.022015598
000050 ae 6f 60 3e 64 2a 2f bd b9 ba d5 3c a9 70 92 bd
       0.21917602 -0.042765036 0.026090013 -0.071503945
000060 bd 2b ab 3d cf 4d a7 3e 72 e7 58 3e ff bb c1 bd
       0.08357952 0.3267655 0.2118204 -0.094596855
000070 3a 99 fe bc 2d 7a 95 3e 99 44 4f 3e 42 16 b9 3e
       -0.031078923 0.29194775 0.20241012 0.36149794
000080 02 ee ae 3e 0c be 96 3e 95 ac d1 3e 36 a1 06 3e
       0.3416596 0.2944187 0.40951982 0.13147435
000090 a0 d1 e8 3e 50 f5 04 3e 99 b6 91 bc 46 5e be 3e
       0.4547243 0.12984204 -0.017787265 0.371813
0000a0 3d 00 8b 3e f9 95 d5 3d c6 8c e5 3e 2a b3 90 3e
       0.2714862 0.10428996 0.44833964 0.2826169
0000b0 c5 ea 25 3e c7 6e 3a 3e 91 69 0c 3d 0a 60 0a 3e
       0.16202839 0.1820632 0.034280363 0.13513198
0000c0 62 f0 4c 3e 25 b7 6c 3d 0b 5c 91 3e d5 b0 85 3e
       0.20013574 0.057791848 0.28390536 0.26111475
0000d0 cc 7c 07 3e 6e 62 8a 3d 11 49 f5 3d c3 3a 94 3e
       0.132312 0.06757055 0.11976827 0.28951082
0000e0 ed 38 0a 3e 69 5b a7 3e 7a ed ee 3d 25 de 80 3e
       0.13498278 0.32686928 0.11666389 0.25169483
0000f0 b7 cf 86 3e 06 20 e0 3c 2b c4 55 3b 9b fe b7 3d
       0.2633035 0.02735902 0.0032618146 0.08984109
